dqn.pth (torch, 72357 bytes, 6 tensors)

net.0.weight f4 [128, 4]
0	0xbd8d7012	-0.06906141
1	0x3d4586ed	0.04822438
2	0x3f202c66	0.62567747
3	0x3ec2539d	0.37954417
4	0xbd745c80	-0.059658527
5	0x3effbf84	0.49950802
6	0x3c8a5c40	0.016889691
7	0xbe6715d8	-0.22566926
8	0xbe4e69f0	-0.201576
9	0xbee8b41c	-0.45449913
10	0x3e032d46	0.12810239
11	0x3f0530ee	0.52027786
12	0x3c166756	0.009179911
13	0xbe94fa5b	-0.29097256
14	0x3d185287	0.03718808
15	0x3ec86bba	0.3914469
16	0x3d0cce1e	0.034376256
17	0xbe2db0a2	-0.16961911
18	0x3e734fa5	0.2376085
19	0x3a8a577f	0.001055464
20	0x3f567eae	0.8378705
21	0xbe2f6e64	-0.17131954
22	0x3f54359e	0.82894313
23	0xbf4a5679	-0.79038197
24	0x3e0d2324	0.13782936
25	0xbf01af65	-0.50658256
26	0xbe2ae15d	-0.16687532
27	0x3db65ba4	0.08904198
28	0x3eb64614	0.3560034
29	0xbe4c05c4	-0.19924074
30	0xbee9aad0	-0.45638132
31	0x3dc9b160	0.09848285
32	0xbedb76f0	-0.4286418
33	0xbf0e20ba	-0.55518687
34	0x3ebe8f9e	0.37218946
35	0xbea9e530	-0.3318267
36	0x3e355520	0.17708254
37	0xbe5c3ddc	-0.21507972
38	0xbecfbc56	-0.40573376
39	0xbda81e30	-0.08208883
40	0xbe51d1d1	-0.20490195
41	0xbf32e96b	-0.6988742
42	0x3de29495	0.11063496
43	0x3ed6cca0	0.4195299
44	0xbdb7f3b0	-0.089820266
45	0xbe0431c2	-0.12909606
46	0x3dc1cc21	0.094627626
47	0xbc17faa4	-0.009276066
48	0x3e73cf6b	0.23809592
49	0x3dd7095a	0.104998305
50	0x3ed1ab98	0.40951228
51	0x3e991af6	0.29903382
52	0x3e029817	0.1275333
53	0xbdca142a	-0.09867127
54	0x3e01a4a3	0.1266046
55	0x3ef8ea8e	0.4861645
56	0x3e7c8730	0.24660945
57	0xbeb8fac6	-0.36128825
58	0xbea161a6	-0.31519812
59	0xbd0ef360	-0.03490007
60	0x3e64a098	0.22326887
61	0xbd8cfd80	-0.06884289
62	0xbe58bb88	-0.21165287
63	0xbeade232	-0.33961636
64	0xbec2160a	-0.3790744
65	0xbd8b481d	-0.06800864
66	0x3ef386f1	0.4756389
67	0x3ef4f680	0.47844315
68	0x3ed2bb4a	0.41158515
69	0xbef48740	-0.47759438
70	0x3c08705a	0.008327568
71	0x3ebc0957	0.36725876
72	0x3f78b1d1	0.97146326
73	0x3e86d9c9	0.26338032
74	0x3efbe3a3	0.4919711
75	0xbed25b35	-0.4108521
76	0x3e9b609a	0.3034714
77	0xbf484215	-0.78225833
78	0x3e80f6f5	0.25188413
79	0x3dad175e	0.084517226
80	0x3e89ce85	0.26915374
81	0xbf0a8d9f	-0.54122347
82	0xbea68f8a	-0.32531387
83	0x3ea54c2b	0.32284674
84	0xbef7ef41	-0.48424724
85	0x3e1823e2	0.14857438
86	0xbda13b59	-0.07872648
87	0x3e846344	0.25856984
88	0x3e4835d8	0.1955179
89	0x3dd0e240	0.10199404
90	0xbd7086a0	-0.05872214
91	0xbe0eb580	-0.13936424
92	0x3e3f5878	0.18686092
93	0xbdddf078	-0.108368814
94	0xbefae4ec	-0.4900278
95	0xbe3a9d88	-0.18224156
96	0xbde310c6	-0.11087184
97	0xbe299dcb	-0.165641
98	0x3ebb01dd	0.3652486
99	0xbe1acbc9	-0.151168
100	0xbe71bd82	-0.23607448
101	0x3e4f6e86	0.20257005
102	0x3d87c5f7	0.06629556
103	0x3ee322e6	0.44362563
104	0xbda909eb	-0.08253845
105	0xbed3108a	-0.41223556
106	0xbee5d6b6	-0.44890374
107	0xbc57d592	-0.013173478
108	0xb9d54dfd	-0.00040684632
109	0xbf005130	-0.5012388
110	0xbf020763	-0.5079252
111	0xbd147455	-0.036243755
112	0xbea5f3d4	-0.3241259
113	0xbeacf9e5	-0.33784404
114	0x3db83152	0.08993782
115	0xbb7006a3	-0.003662505
116	0x3c5287b6	0.012849739
117	0xbe6eccc8	-0.23320305
118	0xbee50ea7	-0.4473774
119	0xbcc4d406	-0.024026882
120	0xbe6e36b3	-0.23263054
121	0xbecb38d1	-0.39691785
122	0x3df093f2	0.11746968
123	0xbe4fa2aa	-0.20276895
124	0x3e3cac04	0.18424994
125	0x3ddd58e0	0.10807967
126	0xbecd11f6	-0.40052766
127	0xbecae41a	-0.39627153
128	0x3f133903	0.5750887
129	0x3e1b36ba	0.15157595
130	0x3f023757	0.5086569
131	0x3e92611b	0.2858971
132	0x3e78e24a	0.24305072
133	0xbc48c651	-0.012254314
134	0xbe3d759a	-0.18501893
135	0x3f008e8a	0.502175
136	0x3830de90	4.2168947e-05
137	0xbf41300f	-0.75463957
138	0xbdd35da0	-0.10320592
139	0xbd1cda9c	-0.03829442
140	0x3e9e36cd	0.30901185
141	0x3dabdd6b	0.083918415
142	0x3ef54d19	0.47910383
143	0x3e8fa093	0.28052196
144	0x3d8f0cf4	0.069848925
145	0xbe92a7b9	-0.28643587
146	0xbece6f3d	-0.40319243
147	0x3f0037a9	0.5008493
148	0xbf017524	-0.5056937
149	0xbe58dcae	-0.21177933
150	0x3e9ef5f6	0.31047028
151	0x3f061ac2	0.5238458
152	0xbd97b5b2	-0.074077025
153	0xbe0106ed	-0.12600298
154	0x3e88827e	0.26662058
155	0x3ecef6d6	0.40422696
156	0xbe512da7	-0.20427571
157	0xbe8b2e69	-0.27183846
158	0x3ec81456	0.39078015
159	0x3dd4cf83	0.10391142
160	0xbcb6b71a	-0.022304107
161	0xbf2a0f84	-0.66429925
162	0xbd99d7fc	-0.07511899
163	0xbd67f452	-0.056629486
164	0x3eb599a1	0.35468772
165	0x3c4ded78	0.012568824
166	0xbdf3db06	-0.1190701
167	0x3ea6445b	0.32474026
168	0x3d57799c	0.05260621
169	0xbf0c607f	-0.5483474
170	0x3e2a626d	0.16639109
171	0x3c3262c3	0.010887804
172	0xbea51a87	-0.322468
173	0x3e0b068a	0.13576713
174	0xbeb81aab	-0.35957846
175	0x3eef8c11	0.4678655
176	0x3f9d9481	1.2310945
177	0x3db36695	0.087598
178	0xbbf32de9	-0.0074212444
179	0xbf277d0c	-0.6542518
180	0x3ecbe535	0.3982331
181	0xbef5e96b	-0.48029646
182	0x3ba6332d	0.0050720186
183	0x3efdaecc	0.49547422
184	0x3cdb9e79	0.026808964
185	0xbed02d63	-0.40659627
186	0x3e20436f	0.15650724
187	0xbc989edc	-0.018630438
188	0x3f96ce5a	1.1781723
189	0xbe819054	-0.25305426
190	0x3f41ffad	0.75780755
191	0xbeddfe5d	-0.43358126
192	0x3ecf6ee1	0.4051428
193	0xbf2033b4	-0.6257889
194	0xbea68a5a	-0.3252743
195	0x3edec2a0	0.43507862
196	0x3ed674f6	0.4188611
197	0xbe8e7352	-0.27822357
198	0xbe9d619c	-0.30738533
199	0xbe90562c	-0.28190744
200	0xbebdaf7d	-0.3704795
201	0xbef16d28	-0.47153592
202	0x3eda3f33	0.42626342
203	0x3edd5d3a	0.4323519
204	0x3e2fc947	0.17166625
205	0xbf1be429	-0.6089502
206	0xbefbc547	-0.49173948
207	0x3e0bb583	0.1364346
208	0xbd500ae0	-0.05079162
209	0x3eaff6d8	0.34368014
210	0xbef0aa9a	-0.4700516
211	0xbeadb16c	-0.33924425
212	0x3d79e5d1	0.061010186
213	0xbea7d6bb	-0.32781014
214	0x3e0c02a3	0.13672881
215	0x3cd57d21	0.026060643
216	0x3e03f40c	0.12886065
217	0x3e8d89b8	0.27644134
218	0xbe90dd34	-0.28293765
219	0xbd878ec0	-0.06619024
220	0xbefa591b	-0.48896107
221	0xbeed7b91	-0.46383336
222	0xbbbebb1c	-0.005820645
223	0x3e528d6b	0.20561759
224	0xbe864e05	-0.262314
225	0xbef15ff2	-0.47143513
226	0x3ac7ac78	0.0015233895
227	0xbe8b2db1	-0.27183297
228	0xbea8f4b7	-0.32999203
229	0x3d1bfb0a	0.038081206
230	0x3eb6de3a	0.3571642
231	0x3e17e6b3	0.14834099
232	0x3eb4249a	0.35184175
233	0xbf398260	-0.7246456
234	0x3dffe418	0.12494677
235	0x3ea68ea9	0.32530716
236	0x3c5b96c0	0.013402641
237	0x3eb88450	0.36038446
238	0xbe30da58	-0.17270792
239	0xbdcf7188	-0.10129076
240	0x3f7aac7e	0.9791945
241	0xbeb09f5b	-0.3449658
242	0x3f0e835b	0.5566918
243	0xbf2a233e	-0.66460025
244	0x3eb81a07	0.35957357
245	0x3e555d50	0.20836377
246	0xbea238ef	-0.31684062
247	0x3eed7a56	0.46382397
248	0xbe81a36d	-0.25319996
249	0x3d6dbc16	0.0580407
250	0x3eb6a6e3	0.356742
251	0xbdf75ac0	-0.12077856
252	0x3f908154	1.1289468
253	0xbea98181	-0.33106616
254	0x3f3adb33	0.7299072
255	0xbf40ae49	-0.7526594

net.0.bias f4 [128]
0	0x3d704b83	0.058665764
1	0x3daf6f60	0.08566165
2	0xbe4507f8	-0.19241321
3	0x3f44b815	0.76843387
4	0x3f3ba9fe	0.7330626
5	0x3df82b79	0.12117667
6	0x3f758b62	0.95915806
7	0xbe561d50	-0.2090962
8	0x3e5aab25	0.21354349
9	0x3db6e6f8	0.089307725
10	0x3c5d42ed	0.013504726
11	0xbf03e2ca	-0.5151793
12	0x3f1ad634	0.604831
13	0x3ef54191	0.47901586
14	0xbeba3400	-0.36367798
15	0xbedcb506	-0.4310686
16	0xbddd08fe	-0.10792731
17	0x3f3e58c9	0.74354225
18	0x3e7083b3	0.2348774
19	0x3e3780b8	0.17920196
20	0x3e95aa58	0.29231524
21	0x3eb1955c	0.34684265
22	0xbd53c070	-0.051697195
23	0xbea50b74	-0.322353
24	0x3f770dfb	0.9650571
25	0x3f1b7593	0.6072628
26	0x3ec57300	0.385643
27	0x3f52f924	0.8241141
28	0xbe56650d	-0.20936985
29	0x3f7232b0	0.94608593
30	0x3f26b736	0.6512331
31	0xbecd14ce	-0.40054935
32	0xbebcffe0	-0.36913967
33	0xbe235d8f	-0.15953659
34	0x3f1ef7ac	0.6209667
35	0x3f1a8a4a	0.6036726
36	0x3e8352cc	0.25649107
37	0xbd2d3e3d	-0.042295683
38	0x3f44eab1	0.7692061
39	0x3eaefd69	0.34177712
40	0x3f11f446	0.57013357
41	0x3f1d9148	0.61549807
42	0x3f413a1a	0.7547928
43	0x3efe6330	0.4968505
44	0x3f144582	0.5791856
45	0xbd619c1e	-0.055080526
46	0x3f6e7d18	0.9315963
47	0xbd92d046	-0.07168631
48	0x3e2d6b6f	0.16935514
49	0xbe8ed6be	-0.2789821
50	0x3e676cf2	0.22600153
51	0x3f30b10d	0.6902016
52	0xbe914532	-0.28373104
53	0x3f31b805	0.69421417
54	0xbecf53d0	-0.4049363
55	0x3e8fa523	0.28055677
56	0x3f5fcdec	0.87423587
57	0x3e3eabfd	0.18620296
58	0x3e48ab64	0.1959663
59	0xbe7b7ce4	-0.2455936
60	0x3de6d575	0.112711824
61	0x3f1315b1	0.57454973
62	0x3f586f10	0.8454447
63	0x3dd30544	0.10303739
64	0x3f38dc96	0.7221159
65	0x3f1c4f8b	0.6105887
66	0xbe3a902c	-0.1821906
67	0x3f2ee45d	0.68317205
68	0x3f75cc2b	0.9601466
69	0x3e5ff429	0.21870483
70	0xbdc7f9e8	-0.09764463
71	0xbe55b2b0	-0.20868945
72	0x3f695e02	0.9115907
73	0x3ebac61d	0.36479273
74	0xbd829c18	-0.06377429
75	0x3f3f9365	0.7483428
76	0x3ea118fc	0.31464374
77	0x3eafa8fa	0.34308606
78	0xbeeb0d9c	-0.4590882
79	0xbef78d54	-0.48350012
80	0xbefc513a	-0.4928072
81	0x3f1bd067	0.6086487
82	0x3ef310a8	0.47473645
83	0x3d004dd0	0.031324208
84	0xbe5efd4e	-0.21776316
85	0x3f06c0d9	0.5263801
86	0x3f7c0367	0.9844269
87	0x3eab9e76	0.33519334
88	0xbeef9d16	-0.46799535
89	0x3f34b864	0.7059386
90	0xbe9731ec	-0.29530275
91	0x3f3850ba	0.7199818
92	0x3f19ff6b	0.6015536
93	0xbdac00c8	-0.083985865
94	0xbdf991c0	-0.12186003
95	0xbe7cf10e	-0.2470133
96	0x3d86dda7	0.065852456
97	0x3f028cbf	0.5099601
98	0x3f2d55c5	0.67709
99	0x3f63a56c	0.8892429
100	0xbe9d8630	-0.3076644
101	0xbbcd46b0	-0.00626453
102	0x3eb57449	0.3544028
103	0xbe8d10fe	-0.27552027
104	0x3c150735	0.009095957
105	0x3ea9585c	0.33075225
106	0x3ea0db1e	0.31417173
107	0x3f40ec01	0.75360113
108	0x3ed36937	0.4129121
109	0x3e1a7465	0.15083463
110	0xbeee7cf6	-0.46579713
111	0xbee08efc	-0.43859088
112	0xbdb416ce	-0.08793412
113	0x3e876531	0.2644439
114	0x3e1f381e	0.15548751
115	0x3f6274f7	0.88459724
116	0x3f12357f	0.5711288
117	0x3f1e9243	0.6194193
118	0x3dd8024a	0.105473116
119	0x3f0e7757	0.5565085
120	0x3efdc5ec	0.49565065
121	0xbed16602	-0.40898138
122	0x3f3f1af8	0.74650526
123	0x3f00122d	0.50027734
124	0x3f605cac	0.87641406
125	0x3f53019f	0.8242435
126	0xbebf6f90	-0.37389803
127	0x3f680768	0.906363

net.2.weight f4 [128, 128]
0	0x3ce26129	0.02763422
1	0xbdae1ffd	-0.08502195
2	0x3d1b643d	0.03793739
3	0xbc3873d5	-0.011258085
4	0x3d71bd83	0.059018623
5	0x3bab2907	0.0052233967
6	0xbd962d2b	-0.07332834
7	0xbd412767	-0.047156718
8	0x3c241281	0.010014177
9	0x3daad1bd	0.08340786
10	0xba3f3a00	-0.00072947145
11	0xbcfb5ede	-0.030684885
12	0xbd057bb6	-0.032588683
13	0xbd4230da	-0.04740987
14	0xbb1d3f60	-0.0023994073
15	0xbda26364	-0.079291135
16	0xbd88d7e9	-0.066818066
17	0xbbfe14e5	-0.0077539557
18	0x3d8b5620	0.068035364
19	0xbd0cc355	-0.03436597
20	0x3d8b8728	0.068128884
21	0xbd77f988	-0.060540706
22	0xbccdcc6c	-0.02512189
23	0xbda122b3	-0.078679465
24	0x3d7172e9	0.058947477
25	0x3cc9edd1	0.024649533
26	0xbd72d067	-0.05928078
27	0xbdd0e89f	-0.10200619
28	0xbc27cd90	-0.010241881
29	0xbd9ca2f6	-0.0764827
30	0xbd64e530	-0.055882633
31	0x3b887c40	0.0041652024
32	0xbc9f2d58	-0.019430801
33	0xbd5f3bbe	-0.054500334
34	0x3d55355e	0.052052848
35	0xbd984e85	-0.074368514
36	0xbd119aa1	-0.035547856
37	0xbc492cd1	-0.0122787515
38	0x3d2a0a88	0.04151395
39	0xbd6a458d	-0.057195235
40	0x3d6f6310	0.058444083
41	0x3c8a3cc0	0.016874671
42	0xbbea00b0	-0.0071411952
43	0xbc982be6	-0.01857562
44	0x3df31af7	0.118703775
45	0x3d328574	0.043584302
46	0x3d4fa8dc	0.050698146
47	0xbd8c9481	-0.06864262
48	0x3c81f782	0.015865091
49	0xba8bb080	-0.001065746
50	0x3d4a5f17	0.04940709
51	0x3c665cc4	0.014060203
52	0x3c86de48	0.016463414
53	0x3d219bf7	0.03945538
54	0x3d4a2e9e	0.049360864
55	0x3cfeeffb	0.031120291
56	0xbd748955	-0.059701283
57	0x3a3ea0cd	0.0007271886
58	0x3d45b2f1	0.048266355
59	0xbd5c7680	-0.053823948
60	0x3bfdefdb	0.0077495403
61	0xbdb67396	-0.08908765
62	0xbd8e6aa4	-0.06953934
63	0xbc8187ae	-0.015811767
64	0x3d3a5056	0.04548677
65	0x3cc85033	0.024452304
66	0x3d7aaece	0.061201863
67	0x3c5ecfb9	0.01359933
68	0xbdd87813	-0.10569777
69	0x3c8829f6	0.016621571
70	0x3c516348	0.012780018
71	0x3b9ec370	0.0048450753
72	0x3bd929f0	0.006627314
73	0xbdb50f08	-0.088407576
74	0x3db4ebb5	0.0883402
75	0x3d22f5d1	0.03978521
76	0x3d94d186	0.07266526
77	0x3d8272d2	0.063695565
78	0xbc4ce490	-0.012505665
79	0x3d90def7	0.07073777
80	0x3dacfb23	0.08446338
81	0x3b6fa00d	0.0036563904
82	0xbdc3a26c	-0.09552464
83	0x3daa8b63	0.08327367
84	0x39f5042b	0.00046733147
85	0x3c5368c4	0.012903396
86	0x3ca8be34	0.020598508
87	0x3d315b55	0.04329999
88	0x3d644a42	0.05573488
89	0x3d811b79	0.06304068
90	0xbd2b9547	-0.04189041
91	0xbc133548	-0.008984871
92	0xbac5d95a	-0.0015094683
93	0x3d28be3e	0.041197054
94	0x3d6ff136	0.058579646
95	0x3b60110f	0.0034189855
96	0x3c8ffb4a	0.017575879
97	0xbcaa19c3	-0.020764237
98	0xbd124ba7	-0.03571668
99	0xbc711b67	-0.014716006
100	0xbd50cd76	-0.050977193
101	0xbd3b74ec	-0.045765802
102	0xbdaf31d3	-0.08554425
103	0x3db416c9	0.087934084
104	0xbcf95eb2	-0.030440662
105	0xbd42d657	-0.04756769
106	0xbcdcebe0	-0.026967943
107	0x3d416ac1	0.04722095
108	0xbdc48c19	-0.09597034
109	0xbd0273e0	-0.03184879
110	0x3cb3ec90	0.021963388
111	0x3d88202b	0.066467606
112	0xbc4ae738	-0.012384228
113	0x3cf29411	0.02961162
114	0x3d9fca96	0.07802312
115	0xbb506c3d	-0.0031802796
116	0xbdc133ad	-0.094336845
117	0x3d678b5a	0.05652938
118	0xbda0acb7	-0.07845443
119	0xbdb49137	-0.0881676
120	0x3ca220a3	0.019790953
121	0x3d2b115e	0.04176461
122	0xbcb0b52b	-0.021570763
123	0x3d7f0510	0.062260687
124	0x3d7234f1	0.05913252
125	0xbd1e28de	-0.038613193
126	0x3d117eb4	0.035521224
127	0xbd8b8ad4	-0.06813589
128	0xbd137a76	-0.03600546
129	0xbbcd6240	-0.006267816
130	0x3d307e0e	0.043088965
131	0xbd1b42d9	-0.037905548
132	0xbb187600	-0.0023263693
133	0x3db36233	0.087589644
134	0xbc2a8659	-0.010408008
135	0xbd2f973e	-0.042868845
136	0x3d64926a	0.055803694
137	0xbc8dd5fc	-0.01731395
138	0xbdce5de7	-0.10076504
139	0xbd590ff9	-0.05299375
140	0x3cf1e8c0	0.02952993
141	0xbdbbcb98	-0.09169692
142	0x3c7184b8	0.014741115
143	0xbd7c8011	-0.06164557
144	0x3d1d68d3	0.038430046
145	0x3d617977	0.05504748
146	0x3d90ee43	0.07076695
147	0xbd1d14b5	-0.038349826
148	0xbc9de7df	-0.019275604
149	0x3d74c07f	0.05975389
150	0xbc989f68	-0.018630698
151	0xbd852c89	-0.06502635
152	0x3cca0d82	0.024664644
153	0xbcba3a61	-0.022732915
154	0xbdc3fb49	-0.09569413
155	0xbc366471	-0.011132346
156	0x3cab06e7	0.020877315
157	0xbd91b3fc	-0.071144074
158	0xbdbaf7d1	-0.091292985
159	0xbb022160	-0.0019856319
160	0xbd04092c	-0.03223531
161	0xbc1e1b2d	-0.009650034
162	0xbce5d283	-0.028054481
163	0x3cf0231c	0.029313616
164	0x3cecf9e8	0.028927758
165	0xbdae9479	-0.08524413
166	0xbd42ede7	-0.047590163
167	0x3cc196af	0.023631422
168	0x3d018dd6	0.031629406
169	0x3c37de9d	0.011222509
170	0xbdad221c	-0.084537715
171	0x3d8ce357	0.06879299
172	0xbc94c2d4	-0.018159308
173	0xbcedec7f	-0.029043434
174	0xbdc21e8e	-0.09478484
175	0xbcb8ce8c	-0.022559427
176	0xbd2696ba	-0.040671088
177	0xbc7aad20	-0.015300065
178	0x3d8890f4	0.066682726
179	0x3d85fb0b	0.06542023
180	0x3d52b976	0.0514464
181	0xbd3022e7	-0.043002035
182	0xbd168bd1	-0.036754433
183	0xbd806df9	-0.062709756
184	0x3d24a6f7	0.040198293
185	0xbd846ea8	-0.064664185
186	0xbd7673b4	-0.060168937
187	0xbdab1022	-0.083526865
188	0x3c0eb450	0.008709982
189	0xbca30128	-0.019898012
190	0xbd81f62b	-0.06345781
191	0x3d6f0082	0.058350094
192	0xbdc8e8c3	-0.09810021
193	0x3d174192	0.036927767
194	0xbd4d1e3c	-0.050077662
195	0xbb75d288	-0.003750952
196	0xbdc9bba9	-0.098502465
197	0x3d242fb2	0.04008455
198	0x3d9bb9e3	0.076038145
199	0x3c81b660	0.015834033
200	0x3d75ffc2	0.060058363
201	0x3ce947ac	0.028476559
202	0x3da593e1	0.08084846
203	0x3abe2600	0.0014507174
204	0xbdd05d3e	-0.101740345
205	0x3d9d4cfd	0.076807
206	0xbd3afe9c	-0.04565297
207	0xbda0c18c	-0.07849416
208	0x3d574636	0.052557193
209	0xbd896615	-0.06708924
210	0x3cecae1d	0.028891617
211	0xbd5a8822	-0.053352483
212	0x3b276515	0.0025542427
213	0x3d236b97	0.039897528
214	0xbd113312	-0.035449095
215	0x3d4202be	0.047365896
216	0x3d054694	0.03253801
217	0x3cded2c3	0.027200108
218	0x3c5e5efa	0.013572449
219	0xbd898cd9	-0.06716318
220	0x3ae38696	0.0017358835
221	0x3ca22a8c	0.019795679
222	0x3d794256	0.06085428
223	0xbbb433d0	-0.0054993406
224	0x3d22f166	0.039780997
225	0x3db4f071	0.08834923
226	0x3d092788	0.033484966
227	0x3c8874dc	0.016657285
228	0x3d891c57	0.066948585
229	0xbce64493	-0.02810887
230	0x3c72b150	0.014812782
231	0x3d9ccd91	0.07656396
232	0x3c964ad3	0.018346226
233	0x3d1eaf06	0.038741134
234	0x3d86c947	0.06581359
235	0x3ba8d433	0.0051522492
236	0xbda05a09	-0.07829673
237	0xbd878fd7	-0.06619232
238	0xbca6397c	-0.020291083
239	0xbc7ec580	-0.015550017
240	0xbc54e098	-0.012993
241	0x3c408d06	0.011752373
242	0xbceb9db3	-0.02876172
243	0x3d1fb555	0.03899129
244	0x3d8f9e25	0.070125856
245	0xbd306d83	-0.04307319
246	0xbd8fc0d8	-0.07019204
247	0xbd80ec66	-0.062950894
248	0x3d905545	0.07047514
249	0x3d065d1e	0.032803647
250	0xbd4ddaf9	-0.050257657
251	0xbdbc5072	-0.09195031
252	0x3d9cc33a	0.07654424
253	0xbd46a591	-0.04849774
254	0xbd2d7a0a	-0.042352714
255	0x3d79d038	0.06098959

net.2.bias f4 [128]
0	0x3d58dfbf	0.052947756
1	0xbdbeb3f2	-0.093116656
2	0x3e997542	0.29972273
3	0xbd289cb1	-0.041165058
4	0x3e8e0473	0.2773777
5	0x3ee2daff	0.44307706
6	0xbafb4237	-0.0019169514
7	0x3e7cf995	0.24704583
8	0x3ec8494f	0.3911843
9	0x3d45f021	0.048324708
10	0x3e9b1f1b	0.3029717
11	0xbda857dd	-0.082198836
12	0x3ec9af00	0.39391327
13	0xbd3940ff	-0.045228
14	0x3c6d75b5	0.014493396
15	0x3ec4bd93	0.38425884
16	0x3e965fa1	0.29369834
17	0xbc507368	-0.0127228275
18	0x3ed18e3c	0.4092883
19	0x3d4eea0a	0.050516166
20	0x3d529f02	0.051421173
21	0x3ebf1707	0.37322256
22	0x3ec721c3	0.38892946
23	0x3d74fb5e	0.059810035
24	0x3e8ffb95	0.2812163
25	0x3d6c7782	0.05773116
26	0x3d814df1	0.06313694
27	0xbda22a0b	-0.07918175
28	0x3e83a880	0.25714493
29	0x3e99d1cf	0.30042884
30	0x3ec6b78f	0.3881192
31	0x3d80f30d	0.06296358
32	0x3ed91f85	0.4240686
33	0x3ea8dbbd	0.32980147
34	0x3ea5a308	0.32350945
35	0x3d42b3f6	0.047534905
36	0xbd9cff6c	-0.07665905
37	0x3e8d6004	0.27612317
38	0xbdaa93ae	-0.08328949
39	0x3c2744d5	0.010209282
40	0x3ed45856	0.41473645
41	0x3e98052c	0.29691446
42	0xbdaf305c	-0.08554146
43	0xbd5f54d7	-0.05452427
44	0x3d8bf449	0.06833703
45	0xbd4c73f2	-0.04991526
46	0x3d82fb27	0.0639556
47	0xbd9ecc5d	-0.07753823
48	0x3cddd1b8	0.02707754
49	0x3cd3f848	0.025875226
50	0xbd0119ec	-0.03151886
51	0xbd0e6bd2	-0.034770794
52	0x3eace5f3	0.33769187
53	0x3e949192	0.2901731
54	0x3e8ca93e	0.27472872
55	0x3d5bea79	0.053690407
56	0x3ec30f15	0.38097444
57	0xbd04f6d6	-0.032461964
58	0xbd4eb2a5	-0.050463337
59	0x3ed9b8cf	0.4252381
60	0xbb84f8b4	-0.004057968
61	0x3c07ec90	0.008296147
62	0x3ed4fcbb	0.41599068
63	0x3bab73e8	0.005232323
64	0xbd8ef1d3	-0.06979718
65	0x3ebf8725	0.37407795
66	0x3e9fcfc1	0.3121319
67	0x3ed4c790	0.41558504
68	0x3d5d0dfa	0.053968407
69	0xbd1e51c2	-0.03865219
70	0x3ec0a443	0.37625322
71	0x3eb00384	0.34377682
72	0x3cf85168	0.030312255
73	0x3d210a76	0.039316617
74	0x3ec4d6f7	0.38445255
75	0x3ed85f76	0.4226033
76	0x3e87022d	0.26368847
77	0x3eb2fb07	0.34957144
78	0x3d1e87e2	0.038703807
79	0x3d90f997	0.070788555
80	0xbcc09d39	-0.02351247
81	0x3edd2900	0.43195343
82	0x3d8f3bb1	0.06993807
83	0x3d8e43ed	0.069465496
84	0x3cb1eed8	0.021720335
85	0xbc94064c	-0.018069409
86	0xbd7901ad	-0.060792614
87	0x3d145c14	0.036220625
88	0x3e899545	0.26871696
89	0xbd315bee	-0.04330056
90	0xb94d5e00	-0.00019585341
91	0x3ebe12bf	0.37123677
92	0x3d59bc1e	0.05315792
93	0xbdaddf91	-0.084899075
94	0x3ea9575d	0.33074465
95	0xbdbc6a63	-0.09199979
96	0xbd1914a6	-0.037373208
97	0x3ea522e8	0.32253194
98	0x3e9e2b77	0.30892536
99	0x3d9b2e1e	0.075771555
100	0xbd80502f	-0.06265294
101	0x3ed94935	0.42438665
102	0x3ed42b78	0.41439414
103	0x3ebf833f	0.3740482
104	0x3cf5d979	0.030010926
105	0x3e986dab	0.2977117
106	0x3ce1e16f	0.027573315
107	0xbd231800	-0.03981781
108	0x3db24a83	0.08705618
109	0x3d7b14a3	0.061298978
110	0x3c2e96b9	0.010656052
111	0xbd7a2e38	-0.061079234
112	0x3d191b47	0.03737953
113	0x3e1e5549	0.15462221
114	0x3ead5e2d	0.33860913
115	0xbd80ea12	-0.06294645
116	0xbd3ffc0f	-0.04687124
117	0xbd01c74d	-0.03168421
118	0x3c1c74e7	0.009549356
119	0x3e886efa	0.26647168
120	0xbd2c1682	-0.042013653
121	0x3e8317bd	0.25604048
122	0xbc126392	-0.008934872
123	0xbcf54095	-0.029938022
124	0x3e874f76	0.2642781
125	0xbdbff9e5	-0.093738355
126	0x3e87080c	0.26373327
127	0xbd2cd32c	-0.042193577

net.4.weight f4 [2, 128]
0	0x3ad4e558	0.0016242666
1	0xbd2ca244	-0.042146936
2	0xbe893736	-0.26799935
3	0x3db4a1cf	0.08819925
4	0xbe8654f7	-0.26236698
5	0xbe67ef7d	-0.22649951
6	0x3aa228c0	0.0012371764
7	0xbe25e4bd	-0.16200538
8	0xbe97c2ef	-0.2964091
9	0xbbada2df	-0.0052989568
10	0xbe989583	-0.29801568
11	0xbd216f7f	-0.03941297
12	0xbea23d34	-0.3168732
13	0x3e9377a5	0.2880222
14	0x3c5ad49a	0.013356352
15	0xbe9b01de	-0.30274862
16	0xbe9dd3ac	-0.30825555
17	0xbc8fd25c	-0.017556362
18	0xbe382c86	-0.17985734
19	0x3cfa151e	0.030527648
20	0xbd4f1943	-0.0505612
21	0xbe6ee8ac	-0.23330945
22	0xbeb08c65	-0.34482113
23	0x3d83413f	0.06408929
24	0xbe7aa8bc	-0.2447843
25	0x3d2b48a5	0.041817326
26	0x3d3485ea	0.044073023
27	0xbd27c6f3	-0.040961217
28	0xbe943c92	-0.2895246
29	0xbe858d87	-0.2608454
30	0xbe948867	-0.29010317
31	0x3caa58fb	0.020794382
32	0xbea43c58	-0.3207729
33	0xbe9fd29e	-0.31215376
34	0xbe3be145	-0.18347652
35	0x3da9e02b	0.0829471
36	0xbd55e144	-0.052216783
37	0xbe56d3e3	-0.20979266
38	0xbd65fdfb	-0.056150418
39	0x3cc39b3b	0.02387773
40	0xbe5d661b	-0.21620981
41	0xbe9cc1cc	-0.30616605
42	0x3d9f9254	0.07791582
43	0x3c8e761b	0.017390301
44	0x3da3bce8	0.079950154
45	0x3cb38d14	0.021917857
46	0x3d3456df	0.04402816
47	0xbcfd5b10	-0.030927211
48	0x3d458256	0.04822
49	0x3c08f7ec	0.00835989
50	0x3d5c24d8	0.053746074
51	0xbc90012d	-0.017578686
52	0xbe4bc7ad	-0.19900389
53	0xbea3de55	-0.32005563
54	0xbe62b336	-0.22138676
55	0xbcf2d539	-0.029642688
56	0xbe99f6ed	-0.30071202
57	0xbc9776f4	-0.018489338
58	0xbd2478f3	-0.04015441
59	0xbe425e9e	-0.18981406
60	0x3c6558e0	0.01399824
61	0x3da72b6b	0.08162578
62	0xbe77424b	-0.24146383
63	0x3d67a4e7	0.056553748
64	0x3d58e87e	0.052956097
65	0xbeaf3821	-0.3422251
66	0xbe963723	-0.2933894
67	0xbe9a9488	-0.30191445
68	0x3d3635e2	0.04448498
69	0xbc01bb3c	-0.007918175
70	0xbe9ff4f0	-0.3124156
71	0xbe3270ff	-0.17425917
72	0xbd6a8c6a	-0.057262816
73	0xbd9d0c7a	-0.07668395
74	0xbe94d112	-0.29065758
75	0xbea9e9c4	-0.33186162
76	0xbe92a7e5	-0.28643718
77	0xbe8dfc81	-0.27731708
78	0x3d3e59b1	0.046472255
79	0xbcf66d7c	-0.030081503
80	0x3ed2dd27	0.4118435
81	0xbe36e4a7	-0.17860661
82	0x3d8fd13c	0.0702233
83	0x3f2dc5ca	0.6787993
84	0x3d81048d	0.06299696
85	0xbb9a13c0	-0.0047020614
86	0x3d343b15	0.044001658
87	0x3d57a863	0.05265082
88	0xbe482413	-0.19545011
89	0x3efea5ef	0.49735972
90	0x3b64a420	0.0034887865
91	0xbe95f2b3	-0.29286727
92	0x3d37f1a6	0.04490819
93	0xbcef227a	-0.029191244
94	0xbe865e51	-0.26243833
95	0xbd41efc6	-0.047347806
96	0xbd050050	-0.032471
97	0xbe760c98	-0.24028242
98	0xbe92b1ce	-0.2865128
99	0x3b8ac872	0.0042353207
100	0xbd5cb254	-0.053881004
101	0xbe8d5104	-0.27600873
102	0xbe9d5175	-0.3072621
103	0xbe706765	-0.23476942
104	0x3d870c17	0.06594103
105	0xbea9b5d1	-0.33146527
106	0x3d5fe6d7	0.054663505
107	0x3d7d6f2b	0.061873596
108	0x3d7dad06	0.061932586
109	0x3c3dc65b	0.011582936
110	0x3d9d2e74	0.07674876
111	0x3c843508	0.016138569
112	0x3d28d0a4	0.0412146
113	0x3f19b8a9	0.60047394
114	0xbea97260	-0.33095074
115	0xbd98d762	-0.07462956
116	0x3d11c1cd	0.035585213
117	0xbd784ef7	-0.06062218
118	0x3d6a074d	0.05713587
119	0xbe9ae954	-0.3025614
120	0xbd958ab9	-0.0730185
121	0xbe95ea9e	-0.2928056
122	0x3c9dbbe6	0.019254636
123	0x3d819dbb	0.06328913
124	0xbe8be23b	-0.27321038
125	0x3c38160c	0.011235725
126	0xbe559281	-0.20856668
127	0xbc854a5c	-0.016270809
128	0x3d52c191	0.05145413
129	0x3d61e5bf	0.055150744
130	0xbe76d5ef	-0.24105047
131	0x3c9a3aa8	0.018826798
132	0xbe6b9532	-0.23006132
133	0xbe7147a8	-0.23562491
134	0x3b072a64	0.0020624632
135	0xbea3aacc	-0.31966245
136	0xbe35b2c2	-0.17743972
137	0x3c91c977	0.017796261
138	0xbe9af269	-0.3026307
139	0x3cad253c	0.021135919
140	0xbe68b4cb	-0.22725217
141	0x3e4df4c3	0.201129
142	0xbc30283e	-0.010751782
143	0xbe954d96	-0.29160756
144	0xbe8bf855	-0.273379
145	0xbc3bd2e8	-0.011463858
146	0xbea18d96	-0.31553334
147	0x3da036b8	0.07822937
148	0xbc4c6508	-0.01247526
149	0xbe9ed72c	-0.31023538
150	0xbeac9ab3	-0.33711776
151	0x3d6fe15a	0.05856452
152	0xbe84fbf9	-0.2597349
153	0xbaef2d8e	-0.0018247829
154	0xbd9ded03	-0.07711222
155	0x3d18fe5c	0.03735195
156	0xbea7a19b	-0.32740483
157	0xbe917c7d	-0.2841529
158	0xbe8f6925	-0.28009906
159	0xbcb99d90	-0.02265814
160	0xbe3f5a2f	-0.18686746
161	0xbe42b751	-0.19015242
162	0xbea2efb0	-0.31823492
163	0xbc2a47f0	-0.010393128
164	0xbd3d1556	-0.046162926
165	0xbe8c2c5d	-0.27377596
166	0x3d9c1f06	0.07623105
167	0x3d41c23e	0.047304384
168	0xbe95bc80	-0.29245377
169	0xbe8003b6	-0.2500283
170	0x3d250b6b	0.040294092
171	0x3d431b22	0.047633298
172	0xbd97bdb1	-0.07409228
173	0x3b907ac0	0.004409164
174	0x3cb7ce81	0.022437336
175	0x3b903eb0	0.004402004
176	0xbd96f90f	-0.07371723
177	0x3c9b64a2	0.018968884
178	0x3c185d85	0.009299641
179	0x3d254be4	0.040355578
180	0xbea6d532	-0.3258453
181	0xbe4f753c	-0.20259565
182	0xbe8e4eba	-0.2779444
183	0x3d2128bf	0.0393455
184	0xbe9a2ed9	-0.30113867
185	0x3d30d332	0.04317016
186	0xbd75d6bf	-0.06001925
187	0xbe837e4f	-0.25682303
188	0xbc06728d	-0.008206022
189	0x3c6b90f8	0.014377825
190	0xbe8292b3	-0.25502548
191	0xbd724792	-0.059150286
192	0xbd2f0671	-0.042730752
193	0xbe91b1b0	-0.28455877
194	0xbea352db	-0.3189915
195	0xbe667fda	-0.22509709
196	0x3d17bb4f	0.037043866
197	0x3cf5799c	0.029965214
198	0xbe8b30ed	-0.27185765
199	0xbe8d331e	-0.27578062
200	0xbc564ef8	-0.013080351
201	0xbd0ce716	-0.03440007
202	0xbe471806	-0.19442758
203	0xbe8b705f	-0.2723417
204	0xbe53b338	-0.20673835
205	0xbe97aad4	-0.2962252
206	0x3c3641bb	0.01112407
207	0x3d353e2e	0.044248752
208	0x3eaadfe6	0.33373946
209	0xbe997c03	-0.29977426
210	0xbd78d572	-0.060750432
211	0x3ef5239e	0.47878736
212	0x3da0a767	0.078444295
213	0xbaee5680	-0.0018183738
214	0xbca2ae25	-0.01985843
215	0x3d9207bf	0.07130384
216	0xbe933305	-0.28749862
217	0x3f08e69c	0.5347688
218	0xbd4a52f9	-0.049395535
219	0xbe6dd0e7	-0.23224221
220	0x3d80326f	0.062596194
221	0xbb150a20	-0.002274163
222	0xbe3562a0	-0.17713404
223	0x3d3a36ae	0.045462303
224	0x3ce7d92e	0.028301802
225	0xbe9792b3	-0.2960411
226	0xbe462e06	-0.19353494
227	0x3d90be61	0.07067562
228	0xbd3db881	-0.046318535
229	0xbe8939dc	-0.26801956
230	0xbe236de2	-0.15959886
231	0xbe6ca67d	-0.23110385
232	0x3cda8dc7	0.026678933
233	0xbeaab116	-0.3333823
234	0x3d6e5531	0.058186714
235	0x3d5728bf	0.052529093
236	0x3d00a468	0.03140679
237	0x3c379d96	0.011207005
238	0xbd794402	-0.060855873
239	0xbdb0d8ba	-0.08635087
240	0xbd238fac	-0.039931938
241	0x3edb819f	0.4287233
242	0xbe854d6c	-0.2603563
243	0x386aa000	5.593896e-05
244	0xbbd12f3e	-0.0063838055
245	0xbcc8e0d8	-0.024521276
246	0xbd771fe3	-0.060333144
247	0xbe4f1c9f	-0.20225762
248	0x3c1f9138	0.009739213
249	0xbea20a1e	-0.31648344
250	0x3baf1e16	0.0053441627
251	0x3d3b76c6	0.045767568
252	0xbe62dc5f	-0.22154377
253	0xbcbd741a	-0.02312665
254	0xbe938541	-0.28812602
255	0xbd299dfe	-0.04141044

net.4.bias f4 [2]
0	0xbe5d1505	-0.2159005
1	0xbe50b3cf	-0.20381092
